runs/iou_fit_conv_9/iter_7690000.pth (torch, 162975 bytes, 42 tensors)

fc1.layers.0.weight f4 [512, 16]
000000 8a ff 2d bd 5c b9 a2 3d 6c 1e dd 3d 4c c0 bc 3a
       -0.04248003 0.07945511 0.10796818 0.0014400571
000010 c2 ba 19 be 40 f9 83 bc 34 5a c9 bf 2d 4d 87 bd
       -0.15012649 -0.016110063 -1.5730653 -0.06606517
000020 3c 89 9c bd 77 97 8d 3e d7 d1 8a 3e cc 3f ea 3d
       -0.07643363 0.2765462 0.2711322 0.114379495
000030 02 21 a5 3c 26 96 ce be aa ec a2 bf ed b9 ae 3d
       0.02015734 -0.4034893 -1.2728474 0.08531556
000040 ba be e0 be c5 7b b8 3e b5 94 3d be e2 0c 95 be
       -0.43895513 0.3603193 -0.18513758 -0.2911139
000050 b3 76 3e 3e bc 4c e2 be 06 f0 4f bc 97 f9 ad 3e
       0.18599968 -0.4419917 -0.012691503 0.33979484
000060 6e e0 3b 3e cc 42 bd 3e b0 d0 f4 3d c2 e2 7d 3e
       0.18347332 0.36965024 0.119538665 0.24793532
000070 c5 02 45 3c ee 3c 87 be 36 a9 a1 3d bf ca 81 3e
       0.012024586 -0.26413673 0.078936026 0.25349995
000080 7d ab 51 3d 4b 24 86 bd 2b 04 88 3e 92 f8 12 bb
       0.051188935 -0.06549891 0.2656568 -0.0022425991
000090 f3 67 ec 3c 96 50 36 3d 28 fc 0b 3d 3f 2e af ba
       0.02885816 0.044510446 0.03417602 -0.0013365223
0000a0 da d3 a8 3b bb e0 18 bd 50 10 5f 3d df 7d ac 3d
       0.005152208 -0.037323695 0.054458916 0.084224455
0000b0 75 e2 95 bd 7a ba fb bd 11 c4 9c be 8c 77 6d 3d
       -0.07318584 -0.12291427 -0.30618337 0.057975337
0000c0 b7 c2 09 3d de 23 1a 3e 4a 18 85 3e ec d7 6f 3e
       0.03363296 0.15052745 0.25995094 0.23422211
0000d0 b3 ea e2 3e 99 cd 31 3d 88 83 39 3c e4 71 e9 be
       0.44319686 0.043408964 0.011322863 -0.45594704
0000e0 1c 9e bb be ca 53 a1 3e 84 e1 c5 3d 43 f0 8b be
       -0.36644065 0.31509238 0.09662154 -0.27331743
0000f0 88 f9 57 3e fa 2c 9a 3e 52 8c ae be 9d fc f8 3d
       0.21091282 0.3011244 -0.3409143 0.12157557
000100 66 f4 0e be c3 c2 5b be a6 a5 67 be 62 bc 0a be
       -0.13960418 -0.21461014 -0.22621784 -0.13548425
000110 66 6e 8b be 85 ff 5b 3e 68 55 9c 3e 68 de 0b 3e
       -0.27232665 0.21484192 0.3053391 0.1365906
000120 1f 6b 2e 3d ab e0 5c be 85 3e 93 3e ea 99 d7 3c
       0.042582627 -0.21570079 0.28758636 0.02631851
000130 04 49 be 3e 9a a2 30 be 50 2c 70 3e 75 71 88 3e
       0.37165082 -0.17249528 0.23454404 0.2664906
000140 e1 ac a2 3d d3 c8 1a bd ab b0 04 3f 5b 6a 0f be
       0.0794313 -0.037789177 0.51832074 -0.14005415
000150 31 35 d2 3e 20 db 9b 3c 5c 6b c6 bd 7f f6 d4 3e
       0.41056207 0.019025385 -0.09688446 0.41594312
000160 1e b9 3d 3d 34 c0 91 bd 97 bb ca 3c 69 6d fa 3d
       0.04631912 -0.07116738 0.024747653 0.122278996
000170 f3 2e ac 3e d2 82 fc 3e 13 76 1f be f4 b6 b1 3e
       0.3362957 0.49318558 -0.15572385 0.34709895
000180 c3 85 89 3e ae d2 c6 3e 5e 96 a2 3e 7e b9 96 3d
       0.26859865 0.3883261 0.31755346 0.073595986
000190 4e 98 ee bc c8 d1 c8 be 37 3e 5a be 2a f6 46 be
       -0.029125359 -0.3922255 -0.21312796 -0.19429842
0001a0 ee 41 f1 bd f1 12 c3 bd 64 ad 1c 3e de db 38 3d
       -0.11780153 -0.09525097 0.15300518 0.045131557
0001b0 7b de 76 3e 7a e7 f3 3d 9e 41 1c 3e d0 ef 6c 3d
       0.24108307 0.11909385 0.15259406 0.05784589
0001c0 51 52 13 bd 9a ea 89 bd 06 15 61 3d 1a 67 39 3d
       -0.035967175 -0.067342 0.05495169 0.04526434
0001d0 73 f8 8d bd 01 ee b1 bd 6d 0c 04 3d 80 d8 61 3d
       -0.069321536 -0.08687974 0.032238413 0.05513811
0001e0 b5 d0 67 be ce ef 23 3d 71 4d 08 3b 77 63 ca bd
       -0.22638209 0.040023617 0.0020798112 -0.09882253
0001f0 2a 9f 0b 3e cb 49 a6 bc 84 cd fb 3d 9f c9 22 3e
       0.13634935 -0.02029886 0.12295058 0.15897225
000200 b8 10 66 3d 1d fb a2 3e bf 62 b2 3d 72 eb 05 bd
       0.056168288 0.3183221 0.087102406 -0.03269524
000210 0c f2 50 bd b5 da a1 bd 55 4a 90 be 55 e7 0b 3e
       -0.051012084 -0.07903043 -0.2818171 0.13662465
000220 e8 35 2e 3e 23 9e c9 3d 8b bf 8b 3e da 19 78 bd
       0.17012751 0.09844615 0.27294573 -0.06057153
000230 1a 3d 94 3e ba 85 ea 3d fc 87 2e 3e 68 b6 e9 3e
       0.28952867 0.114512876 0.17044061 0.45646977
000240 ef 23 f3 3c 66 ce 1f bd 73 66 8c bd b9 14 34 bd
       0.02968022 -0.039015196 -0.06855478 -0.043965075
000250 7a 7a 5a be be 34 c6 be f4 5f 88 be b8 5f 2f bd
       -0.21335784 -0.38712114 -0.26635706 -0.042815894
000260 06 ac 77 3e 34 ef 8e 3e df f3 60 3e c7 8f 25 3e
       0.24186715 0.27916873 0.2196803 0.16168128
000270 9a 0f 4b bd 34 8d af bd 52 dd cc 3c 8f 6f 44 3e
       -0.049575426 -0.08571854 0.025007877 0.19183181
000280 5c 1e 80 3e 76 2c 02 3f f0 22 fb 3b 99 bb db 3d
       0.25023162 0.5084909 0.007664077 0.10729141
000290 79 ac 2e 3e fc cc 1c 3e 57 c3 3f 3d 35 05 0b 3f
       0.1705798 0.1531257 0.04681715 0.5430482
0002a0 33 16 ac bd 25 c5 59 3e de 96 26 be 29 9a 0a bf
       -0.08402672 0.21266611 -0.16268489 -0.5414148
0002b0 27 32 ed 3d 76 ad 81 bd 52 8e 79 be 29 49 71 3e
       0.115818314 -0.06331913 -0.24370697 0.23563065
0002c0 1b 5f 97 bd 2c 0b 8c bd 83 c6 ec 3d 75 09 02 3e
       -0.07391187 -0.06838068 0.115613006 0.1269892
0002d0 dc 90 3f be 46 eb 04 bd 99 11 3c 3e 85 44 b4 bf
       -0.18707603 -0.032450937 0.18366088 -1.408341
0002e0 f1 78 cb bd 26 49 2f be 4b 7f bc bd 4d 78 68 3e
       -0.09935177 -0.17117748 -0.09203967 0.22702141
0002f0 89 94 42 3e 31 a8 6c be 0b e0 0f be 67 26 eb bf
       0.19001974 -0.23111035 -0.1405031 -1.8371094
000300 53 f6 27 3e f7 93 00 3e 36 3c f6 3d ac b7 65 be
       0.16402559 0.12556444 0.12023203 -0.22433347
000310 92 4c 7e 3e b2 e1 7b be a3 a4 09 3e fc 1f 96 3c
       0.24833897 -0.24597815 0.1344171 0.018325798
000320 64 12 d2 bd 29 be 7d be 80 61 97 3d ca 90 9b 3e
       -0.10257414 -0.24779572 0.073916435 0.30383903
000330 2f af 98 be 00 4d 0a 3f a6 af 75 bd 90 40 59 3e
       -0.29821154 0.5402374 -0.059981965 0.21216035
000340 42 42 1a 3c 5b 70 1a 3e 3d aa 39 be 18 ff 6f bd
       0.009415211 0.15081923 -0.18131347 -0.058592886
000350 e1 61 3e bb a5 42 85 be 7b 8f 01 3e ac 74 dc bd
       -0.002905004 -0.26027408 0.1265239 -0.10764441
000360 c5 b4 85 3d 86 dc c6 bd f2 1a 8f 3c c7 e2 02 3e
       0.0652862 -0.0971003 0.017468903 0.12781821
000370 51 6c c2 be 4b cf b7 bd ae 0b bc bc d9 6e 3f be
       -0.37973264 -0.08975085 -0.022954788 -0.18694629
000380 8c 9f c5 3e bb 0e 02 bd 42 29 b0 3e 8a 04 6b be
       0.38598287 -0.03175233 0.34406477 -0.2295095
000390 4a 84 80 3e d3 b7 8c be 53 52 d0 bd 82 a6 0d 3d
       0.2510093 -0.27483997 -0.10171952 0.034582622
0003a0 3f bd 37 bf ec 54 b6 3e 21 18 f7 bd 96 91 ce 3e
       -0.7177314 0.35611665 -0.12065149 0.40345448
0003b0 93 90 8e 3e 89 9d 64 3d 77 b6 ff be 9b 61 45 3e
       0.27844676 0.0558143 -0.49943897 0.19275515
0003c0 86 b4 28 be c4 5a 48 3e b8 1d fd be a0 af 8d 3e
       -0.16475114 0.19565874 -0.49436736 0.27673054
0003d0 55 63 42 3e 61 a1 75 3e 50 14 3c be eb 6c 07 be
       0.18983205 0.23987342 -0.18367124 -0.13225143
0003e0 3d 25 f6 3d 55 88 a8 3c 15 bc a8 3e c8 07 7c bd
       0.120188214 0.02057282 0.32955995 -0.06153086
0003f0 12 ab dd 3e d9 c9 53 be 7f 83 ef bd 6c 84 09 be
       0.4329458 -0.20682468 -0.11695003 -0.13429421

fc1.layers.0.bias f4 [512]
000000 e1 32 3b bd ff 40 23 3d 58 08 25 be 1d 40 43 3e
       -0.04570282 0.039856907 -0.16116464 0.19067426
000010 53 83 da 3d b9 62 ab 3e aa f1 f6 3c a1 ef 91 bc
       0.10669579 0.33473757 0.030144531 -0.01781446
000020 50 35 2b 3e ce c9 e3 3c 65 15 36 3e a3 44 fc 3d
       0.16719556 0.027806189 0.17781599 0.12317779
000030 4a d8 9d 3d eb af 13 bd 51 ae cf be b9 eb 32 3e
       0.077072695 -0.03605644 -0.4056268 0.17472734
000040 48 82 af 3e 54 e1 1f 3e 7a ae ce 3d 02 f3 18 3e
       0.34279084 0.156133 0.100918725 0.1493645
000050 fe 64 81 3d 92 6e 48 3d 28 91 52 3e ed 10 f7 bd
       0.06318091 0.048933573 0.20563185 -0.12063775
000060 c3 b2 46 be d3 b1 8a 3e cf cf e7 3e 5f fe 9a be
       -0.1940413 0.27088794 0.45275733 -0.30272195
000070 74 32 d3 3d df 2b 98 3d d9 7a 67 be e6 b1 c6 be
       0.103123575 0.07430243 -0.22605456 -0.388076
000080 ec f0 b9 3d ab 98 35 3f ba a4 64 3c f2 0a 44 3d
       0.09079155 0.7093608 0.0139552895 0.047862
000090 f5 e3 eb bd 67 4b a4 3e 07 8f 90 be ca da ad 3e
       -0.11518089 0.32088777 -0.2823412 0.33955985
0000a0 0c ad 8b 3e 03 da c8 bc dd 2e e2 bd 0f 2c ca 3d
       0.27280462 -0.024518019 -0.11044095 0.09871685
0000b0 9f fd c7 bd b7 d8 e0 be e1 8e f8 bd f4 a1 33 be
       -0.09765171 -0.4391534 -0.12136627 -0.17542249
0000c0 93 b3 f6 bd 23 ac 07 be cd d3 e6 3c 9e 67 54 be
       -0.1204597 -0.13249259 0.028177166 -0.20742652
0000d0 aa b0 89 be 3c 10 00 3f e6 57 42 be ba 94 d1 bc
       -0.26892596 0.5002477 -0.18978843 -0.025583614
0000e0 fe 5c 10 be 75 2c a4 3e 95 1f 46 3e 7f f1 12 3f
       -0.14097974 0.32065168 0.19347985 0.57399744
0000f0 74 a5 03 3e 2e a8 c5 be cf 66 88 3e b3 56 4f 3d
       0.12856084 -0.38604873 0.26640937 0.050619792
000100 9a db 67 3e 50 7e 95 3e ef 94 d8 bc fd 38 b2 bd
       0.22642365 0.2919793 -0.026438205 -0.08702276
000110 72 23 1c 3d cf 69 87 3d a5 3e 83 be 68 59 01 be
       0.03811974 0.06611978 -0.2563373 -0.12631762
000120 e8 03 03 be 95 cf f6 bd a8 b1 ce bd 57 e0 9b 3d
       -0.12794459 -0.12051312 -0.10092479 0.07611149
000130 7a e1 9f 3e ec 63 4a bb 08 b3 02 3d 31 f3 25 3e
       0.31226712 -0.0030882312 0.03190902 0.16206051
000140 b3 2b 82 be 6d f4 a5 3c 1f 09 72 bd 57 83 ef 3e
       -0.25423965 0.020258153 -0.05909073 0.46779892
000150 ca 3e 08 bc c0 e6 8b 3d 6c 22 c6 3e 27 b4 94 be
       -0.008315751 0.068311214 0.38698137 -0.29043695
000160 d1 8b a6 3a 20 e9 40 3e d7 ff 05 3e 17 64 40 3c
       0.0012706463 0.1883893 0.13085876 0.011742613
000170 48 8e bf 3d 9a d5 b5 bd de 8b b7 bd 64 d2 ec bd
       0.0935331 -0.08878632 -0.089622244 -0.11563566
000180 94 9b 82 3e c3 9e 47 3e 72 46 05 3e 91 65 b0 3e
       0.25509322 0.19494157 0.13015154 0.3445249
000190 3f 9a ae 3e 4e f7 37 3e 80 36 13 bb 42 25 60 3e
       0.34102055 0.17965433 -0.0022462904 0.21889213
0001a0 63 71 10 bd 18 b9 3d 3d 30 b9 1d 3d d5 ea 1b 3d
       -0.035264384 0.046319097 0.038506687 0.03806575
0001b0 a3 4f 50 bd 44 97 ec bc 89 71 35 be 1e 6d 41 3b
       -0.050857197 -0.028880723 -0.17719091 0.0029514502
0001c0 94 f6 e1 3e 49 cd 2e bc b7 e8 f3 3d 72 26 44 be
       0.44133437 -0.010669061 0.11909621 -0.1915529
0001d0 c1 32 22 3e 66 74 47 3d 0a c6 85 3e 19 38 1c be
       0.15839674 0.04869499 0.26127654 -0.15255775
0001e0 ea 91 9d bb d8 65 8a bd cc b3 06 3d a8 9d 84 3d
       -0.004808654 -0.067577064 0.03288631 0.06475383
0001f0 e6 b2 3b 3e e4 0d c7 3d 7b 39 91 be 31 b8 f1 bd
       0.18329963 0.09719446 -0.28364167 -0.1180271
000200 37 b9 a0 3d 1e ce 26 be 67 1c e7 3d 82 60 67 b9
       0.07847827 -0.16289565 0.11284714 -0.00022065829
000210 66 14 67 3e c1 66 c3 bd eb 36 23 be f1 60 42 bd
       0.22566375 -0.09541083 -0.15938918 -0.04745573
000220 ed 08 00 3e 4e c9 68 3d 0e 3b 7c be b9 a5 f9 3e
       0.12503405 0.056832604 -0.24631903 0.4875925
000230 9d 0b 8a 3d b2 92 e5 3e 44 a6 4e 3d 9e 33 43 3e
       0.06740496 0.44838482 0.050451532 0.19062659
000240 7d c1 86 be 86 2b 09 3e f6 a4 d9 3e 9c ff 55 be
       -0.26319495 0.13395509 0.42508668 -0.20898288
000250 71 09 e2 3e fe b5 21 be 1c a2 bb 3e 5d 86 fd 3d
       0.44147828 -0.15792081 0.36647117 0.123791434
000260 49 a5 22 be 3f 02 88 3e b6 5f 67 be 6c 3d a5 3d
       -0.15883364 0.26564214 -0.22595105 0.08068356
000270 4b fc a8 3d c9 6f 60 3e 88 62 66 3e 1d 77 aa 3e
       0.08251246 0.21917643 0.22498524 0.33294
000280 74 1d 4f be 1a d6 ab 3e c0 d8 86 3c 14 67 a7 3d
       -0.20226079 0.33561784 0.016460776 0.081739575
000290 1a 77 9d 3d f7 aa 5b 3e b3 68 45 3e 59 01 5e bd
       0.076887324 0.21451937 0.19278221 -0.054200504
0002a0 df c8 84 3e 2e 2f 99 3e a0 58 17 3e 99 cd 53 3e
       0.25934502 0.29918808 0.14779902 0.20683898
0002b0 8f 63 23 3c be 9d d6 be d7 22 bc bc ab b8 c7 3b
       0.009972467 -0.41917223 -0.022965832 0.006095012
0002c0 4a 5e 61 be 3f 1f 04 3e 26 65 0b bd 02 72 3d 3d
       -0.22008625 0.12902544 -0.03403201 0.046251304
0002d0 a2 54 82 bd 19 3e e2 3d 4c 2a 16 bd 0f b5 82 bd
       -0.06363799 0.110470004 -0.03666143 -0.063821904
0002e0 54 87 41 3e 44 00 c3 bc e9 f8 a5 be 08 8c 32 be
       0.1889928 -0.023803838 -0.32416466 -0.1743623
0002f0 e7 3a 55 3e ba b0 f6 3d b3 4d e3 bc 87 4a 91 3e
       0.2082325 0.12045427 -0.02774701 0.28377172
000300 e0 c6 38 bd 15 02 00 3d 23 81 f3 3d 2f 92 77 3c
       -0.045111537 0.031251986 0.11889865 0.0151105365
000310 d7 53 8d bd 04 33 07 3e 35 83 84 3e a0 5f e4 3e
       -0.06900757 0.13203055 0.25881353 0.44604206
000320 ad c3 c1 bd 2e d3 6b 3e 54 96 64 be 61 0e a9 bc
       -0.0946115 0.23029777 -0.2232297 -0.02063674
000330 a4 24 a2 3e 01 0a 50 3e f2 06 37 3e 2b 16 78 3e
       0.3166858 0.20316316 0.17873743 0.24227206
000340 6a a7 29 3e 96 02 3a be 50 55 83 3e d4 f7 c4 bd
       0.1656777 -0.18165049 0.25651026 -0.09617582
000350 24 cd 91 be 8d ed 1a 3e c9 15 be 3e b1 e6 56 bd
       -0.28476822 0.15129681 0.37125996 -0.0524661
000360 8f 60 92 3e 3f be 9a 3e 1e 4a bc 3e db f0 38 be
       0.28589293 0.3022327 0.36775297 -0.18060629
000370 e4 25 6c be 87 9d 86 b9 26 31 7d bb d1 e7 8e 3d
       -0.23061329 -0.0002567584 -0.003863403 0.06977809
000380 96 3b b9 3d 59 06 04 3e 6e af 2a 3e 3f 10 fd 3d
       0.09044568 0.12893046 0.16668484 0.12356614
000390 b6 91 2c 3e c9 c2 8c 3e 83 da c1 3d fa b6 f1 3d
       0.1685246 0.2749236 0.09465506 0.11802478
0003a0 e3 0a 1c be 4c eb 7b bd be 2e 1d be 6a 65 42 3e
       -0.15238528 -0.061503693 -0.15349862 0.18983999
0003b0 2d 92 e1 3c 2e 4a d6 bd 31 00 65 3c 36 05 d5 bd
       0.027535522 -0.104633674 0.013977096 -0.104013845
0003c0 da 51 00 bd ea f3 10 be ce 9e e6 bb 45 70 70 be
       -0.03132806 -0.14155546 -0.007037974 -0.23480327
0003d0 d1 ba 30 3e 0a 77 de 3d 08 db e3 be 63 e4 00 be
       0.17258765 0.10862549 -0.44503045 -0.12587123
0003e0 9e db 89 3d b1 69 fd bd ad 70 ae 3e 7b 54 63 3e
       0.06731342 -0.12373675 0.3407034 0.22200195
0003f0 c6 c5 82 3c fb 52 61 3e 9e d0 96 3d 61 2b b4 bd
       0.015963446 0.22004311 0.07364009 -0.08797336

conv2.layers.0.weight f4 [2, 1, 5]
000000 91 78 65 bf 82 35 c8 3e f1 ae 1f 3f 2a 72 3b 3e
       -0.89637095 0.39103323 0.62376314 0.18305269
000010 ae 14 31 3e b2 bb ea 3e 7d 92 41 3e 69 c2 e5 3d
       0.17293045 0.45846325 0.18903537 0.112187214
000020 ff dc 78 bf 9c df 62 3e
       -0.97212213 0.22155613

conv2.layers.0.bias f4 [2]
000000 f5 84 b5 bc cf 4e 37 3c
       -0.022158125 0.011188223

conv3.layers.0.weight f4 [4, 2, 5]
000000 8a 33 0d bd 33 db 47 3e cf 96 84 3e 13 02 4b 3d
       -0.03447298 0.19517212 0.25896308 0.049562525
000010 1a 1c 9d 3d 13 07 81 bd 02 31 1b bf dc d2 88 3e
       0.076713756 -0.063001774 -0.60621655 0.26723373
000020 94 2e 21 3e b0 36 31 3e a7 a6 80 bd 28 29 da 3e
       0.15740424 0.17306018 -0.062817864 0.42609525
000030 03 f3 06 3e 84 d8 4c 3e 32 d2 e8 3d a9 42 37 3f
       0.13178639 0.20004469 0.113682166 0.7158609
000040 ad 56 3e 3f 57 6d e6 be e2 ff 8f be d3 23 8b 3e
       0.74351007 -0.45005295 -0.2812491 0.2717577
000050 07 ec cc 3e d9 77 06 bf d9 7b 1d 3e e5 22 24 bd
       0.40023825 -0.52526623 0.15379275 -0.04007234
000060 07 76 3c 3e d6 43 cc 3e f6 11 b8 3d cf 9a ab be
       0.18404399 0.39895505 0.08987801 -0.33516547
000070 44 af b2 3e ef 34 7d 3e a6 5a bc 3e 59 8d 9f 3e
       0.34899342 0.24727224 0.3678791 0.31162527
000080 ea b6 15 bf dc 6a cd be bb 24 78 3e df 41 a4 3e
       -0.5848223 -0.4012059 0.24232762 0.32081506
000090 12 99 e0 3d 9d 2a 0c bf b0 4b 96 3c e5 b3 eb 3e
       0.10966696 -0.5475252 0.018346637 0.46035686

conv3.layers.0.bias f4 [4]
000000 3c 2a 19 bf 56 9f 82 3d 24 93 a0 3e c1 20 cf bd
       -0.5983007 0.06378047 0.3136226 -0.10113669

conv4.layers.0.weight f4 [8, 4, 5]
000000 67 aa 86 3e 75 ee 5d 3e ff 2f 72 3f 5c 56 2e bf
       0.26301882 0.21672995 0.94604486 -0.68100524
000010 bf cc 7a be cb 9c d2 3d c6 49 b6 be 17 49 4b 3d
       -0.24492167 0.10283812 -0.3560316 0.04963025
000020 5c 55 87 be c9 7d 79 3e 68 44 c3 3d 8b cc c2 3e
       -0.26432312 0.2436439 0.09534532 0.3804668
000030 23 4d 84 3e 7c fd 58 ba 42 73 4a 3e cd ff c7 3e
       0.258401 -0.0008277518 0.1977053 0.39062348
000040 2d b6 cc be 60 2b 45 be 9f 8e b9 bd 1d ac cb 3e
       -0.3998274 -0.19254827 -0.09060406 0.3977975
000050 d5 14 f9 be 2f 83 a0 bc 09 7e 47 bf 91 40 10 3d
       -0.48648706 -0.019593803 -0.7792669 0.035217825
000060 04 de 87 3e 15 9d f0 3d 35 9e 12 3e 63 1a 70 bd
       0.26536572 0.11748711 0.14318164 -0.058618914
000070 43 7f d4 3e cc ed 33 3d 94 3e 3d be 6d d8 b2 be
       0.41503343 0.043927953 -0.18480903 -0.34930745
000080 70 03 49 3e 73 ca 8a 3e 4f 2f de bd 93 3b 5c be
       0.19630218 0.27107581 -0.10848867 -0.21507101
000090 94 9f a4 bd 75 51 a3 bd 32 2b a5 3e b0 8d 7e be
       -0.080382496 -0.07974521 0.32259518 -0.24858737
0000a0 1f 36 3f be 59 25 8d 3c bd 0b 43 3e 0c 97 1a 3c
       -0.1867299 0.017229723 0.19047447 0.009435426
0000b0 b1 41 ac bd 34 6f 5e be ce 73 0c 3e 72 5c f1 bd
       -0.08410967 -0.21722108 0.13716051 -0.11785211
0000c0 74 ac 94 bd 9a 5f 3c be f2 56 86 bc 3c ef 37 3e
       -0.07259455 -0.18395844 -0.01639888 0.17962354
0000d0 ce 9d 0b be 25 de 29 be 53 79 66 3d 03 c0 23 3e
       -0.13634416 -0.16588648 0.056268048 0.15991215
0000e0 6e ea 42 3d 46 40 cf bd 30 5f d3 bd 06 41 88 3d
       0.04758685 -0.10119681 -0.1032089 0.06653027
0000f0 50 83 86 3d 6a e9 c8 bd 80 d8 aa be fe 1c 83 bf
       0.065680146 -0.09810145 -0.333683 -1.0243223
000100 e9 5a 40 3f 3c ad 0b bd e1 a8 b1 3e c5 a7 26 be
       0.7513872 -0.034100756 0.34699157 -0.16274936
000110 32 6c 4e bc c3 3c b8 be f9 ed 8d be 8b c9 a6 3e
       -0.012599038 -0.35983858 -0.2772062 0.3257564
000120 c2 6a 7a be 78 62 6f be 95 f4 5b 3e 60 e5 8b be
       -0.24454787 -0.23377407 0.2148002 -0.27323437
000130 d9 60 17 3d 2f e0 8f 3e 3c c2 40 bf 71 83 81 3c
       0.036957595 0.28100726 -0.7529638 0.015809746
000140 16 be 42 3d 16 57 d9 3d c5 9f a9 3d 19 e1 af 3d
       0.04754456 0.106123134 0.08282427 0.08587856
000150 80 c4 ba ba 0f dd e2 bc 29 a4 2a be bc 7e c9 3c
       -0.0014249235 -0.0276933 -0.16664185 0.024596564
000160 76 8b 10 be 21 80 1b 3d a9 5f 34 3c 95 35 3d be
       -0.141157 0.03796399 0.011009135 -0.18477471
000170 29 10 1a be 96 56 c3 3d 47 d5 cb bd d6 af 5e 3d
       -0.15045227 0.09537999 -0.09952789 0.05436691
000180 e1 e3 21 3e f2 c1 1a 3e e0 d2 10 3d ed 74 60 bd
       0.15809585 0.15113047 0.035357356 -0.05479901
000190 08 ee f1 be 8c 1c bf 3e 59 73 cb 3d c2 e6 0c bf
       -0.47251916 0.37326467 0.0993411 -0.5503961
0001a0 b8 12 f7 3d c2 c4 d4 3e 5b 46 18 be b0 8f 00 3d
       0.12064117 0.41556364 -0.14870588 0.03138703
0001b0 65 b2 c5 be 1c 54 62 bd 82 2f 23 3e bb 24 8c 3e
       -0.38612667 -0.055255994 0.15936092 0.27371773
0001c0 47 3d 32 3e 44 d7 52 be 24 25 a4 3e c9 6e c7 3e
       0.17406188 -0.2058993 0.32059586 0.3895171
0001d0 36 6e 35 bc cc be a0 3d 51 5c ba bd 40 57 bb 3d
       -0.01107364 0.078488916 -0.09099639 0.09147501
0001e0 25 ce ca bb 2b 26 07 be 69 c0 53 3d cf c3 56 be
       -0.006189125 -0.13198154 0.05169717 -0.20973133
0001f0 71 05 42 bd 69 39 19 bd b3 71 80 3d 16 33 61 be
       -0.04736847 -0.037408266 0.062716864 -0.21992144
000200 e4 c2 d7 bd 49 01 4a be c5 d9 42 be e6 7d 8d 3c
       -0.10535219 -0.19727053 -0.19028385 0.017271947
000210 c7 3d 8c bd 8e 08 0e be 1e 62 45 be 35 35 a1 bc
       -0.068477206 -0.13870451 -0.1927571 -0.019678691
000220 1b 78 d6 3d 64 6c 0c be d0 74 f0 bd 39 60 50 bd
       0.10472127 -0.13713223 -0.1174103 -0.050873015
000230 f1 cb 13 ba 67 f6 e9 be 09 97 4e 3e 3e 6e e1 3d
       -0.00056379946 -0.45695803 0.20174803 0.11007355
000240 2d 8c 31 3e c4 87 9e 3d 30 38 a0 be 5c 22 85 3e
       0.17338629 0.07740739 -0.31292868 0.26002777
000250 4f 0c de be 98 8a 4b 3d 6c 49 d9 bd 8b 19 4f bd
       -0.43368766 0.04969272 -0.10609707 -0.05056147
000260 e5 29 5a 3e bc 6d dc 3e 11 27 ea bb f1 c8 f2 3e
       0.21305044 0.4305247 -0.0071457704 0.4741893
000270 ab a7 f6 3c fe 1d 6e 3e b2 ff a7 3e 7e e7 eb 3e
       0.030109247 0.23253629 0.32812268 0.46075052

conv4.layers.0.bias f4 [8]
000000 83 00 68 bd 69 7b 2e 3e 87 40 60 be bd 46 e4 bd
       -0.056641113 0.17039265 -0.21899615 -0.11146305
000010 d6 27 cd bd 6a d5 0d be c2 81 db bd 51 8b 33 bb
       -0.10017364 -0.13850942 -0.10718109 -0.0027396271

conv5.layers.0.weight f4 [16, 8, 5]
000000 69 9c 06 be 68 19 15 be 5e 8c 8b 3d 04 c7 a1 bd
       -0.13145603 -0.14560473 0.06813882 -0.07899287
000010 19 31 28 bc 08 6a a7 bd 07 d5 48 bd 5d a2 9c bc
       -0.010265612 -0.08174521 -0.049031284 -0.01912039
000020 ed 5e 94 3d 60 24 8c bd 5d da 8f bd dc 01 05 be
       0.07244668 -0.068428755 -0.07024071 -0.1298899
000030 b2 70 2e bd b6 9c 87 3d 5a de 95 bd 65 22 28 39
       -0.042587943 0.06621687 -0.07317801 0.00016034541
000040 a4 f3 35 3b 2a b8 be bd b5 6b e5 3d 2a 69 7e bc
       0.002776363 -0.0931247 0.11202184 -0.015528003
000050 ab 22 0e bd 00 7f b7 bb 1b ac 9c 3d e3 99 0e be
       -0.03470103 -0.0055998564 0.07650014 -0.1392589
000060 97 53 4c 3d a3 f7 84 3d 65 47 d1 3d 04 92 30 bd
       0.049884405 0.064925455 0.102186956 -0.043108
000070 25 68 96 3d 27 47 38 bd 34 1a 5a bd 60 41 1d bc
       0.07344083 -0.04498973 -0.053247645 -0.009598106
000080 3e d5 18 3e 3b 53 07 3e c8 32 cf 3c 4d 57 39 bd
       0.14925095 0.13215344 0.02529277 -0.045249272
000090 6a b1 72 bd fe 27 0d 3e 9b 8e 11 be 75 9d 14 be
       -0.059251226 0.13784787 -0.14214556 -0.1451319
0000a0 49 d6 fe bd 39 6b d0 bd 9f 1b a0 be 3b 02 4f 3c
       -0.124432154 -0.10176701 -0.31271073 0.012634809
0000b0 1c 2f 88 be f5 f2 1b 3e e2 e6 a9 3e 40 b3 10 be
       -0.26598442 0.152294 0.33183962 -0.14130878
0000c0 21 a0 71 3e d7 22 d1 3e aa d5 32 bd e6 5a c3 bd
       0.2359624 0.40846893 -0.043660797 -0.09538822
0000d0 6d 70 eb 3b 73 21 04 3e dc 20 ec bd 63 c9 c1 3e
       0.007185033 0.12903385 -0.11529705 0.37848958
0000e0 06 4f 8e bd f5 50 2e be 9d c3 96 be d2 3c 69 3f
       -0.06948666 -0.1702307 -0.29446116 0.9110843
0000f0 22 69 d8 bd e3 24 2f bd 83 7e 6e 3d 69 3a e5 bd
       -0.105669275 -0.042759787 0.05822612 -0.111927815
000100 da 7c a2 3c aa ee 0d be a9 e4 2c be d7 cc 3e 3e
       0.019834924 -0.13860574 -0.16884102 0.18632828
000110 2e 7c b4 be 65 11 c4 be d6 6e ee 3d 54 ad e9 3d
       -0.35250992 -0.3829452 0.11642234 0.11410013
000120 60 3e 6e bc 39 19 9d bd 33 46 d4 3d fe 19 4c be
       -0.014541239 -0.076708265 0.10364952 -0.1993179
000130 ee 35 d6 3c 7f 1d 3d be a9 45 91 3e 6b 1d 10 3c
       0.026148763 -0.18468283 0.2837346 0.008796076
000140 ce ed e1 bc 36 06 67 3d 56 40 8b bc 97 6a 4d 3e
       -0.027579214 0.056402408 -0.016998451 0.20060192
000150 77 48 4c bc 54 95 15 be 39 f0 c5 be 04 7a 4f 3e
       -0.012468449 -0.14607745 -0.38659838 0.20261389
000160 9b 84 a2 3d 38 58 55 be 7c 09 17 be 2d 74 b7 bd
       0.07935449 -0.20834434 -0.14749712 -0.08957706
000170 36 0c 01 ba a5 5c 00 be 7c f3 e1 3d 03 73 fe bd
       -0.0004922779 -0.12535341 0.11032769 -0.124242805
000180 af 8a 1f 3e 24 41 f4 3d 33 8b ce 3e 2f 86 02 3d
       0.15580247 0.11926487 0.40340576 0.03186625
000190 b1 55 db 3d f5 03 94 bc c4 6d 7e bc c4 8a a3 3d
       0.10709704 -0.018068293 -0.0155291 0.07985452
0001a0 d8 3d 33 3e d1 c6 fd bc c5 f0 4d 3d 41 ce 50 3e
       0.1750406 -0.030978592 0.050278444 0.2039118
0001b0 69 1c 4f be 8a a5 b9 3d 51 d9 cc bd 48 c9 91 bd
       -0.20225681 0.09064777 -0.10002387 -0.071184695
0001c0 82 50 4c bd 9d 30 c0 3b 13 21 2c 3b 29 25 8e 3e
       -0.049881466 0.00586517 0.002626483 0.27762726
0001d0 56 48 c4 3e c4 92 4c 3e 50 ec 29 be 5a 25 eb 3e
       0.38336438 0.19977862 -0.16594052 0.45926934
0001e0 3d e8 5b be 07 42 1f 3e 5d ec 24 3e 8a 81 0e 3e
       -0.2147531 0.15552531 0.1610579 0.13916603
0001f0 9a ee ba 3d af dd f7 3e 47 f7 19 3e 94 2c 70 be
       0.09127541 0.4841132 0.15035735 -0.23454505
000200 c3 ac c1 be 83 33 dd bd 72 79 22 be c7 c3 96 bc
       -0.3782712 -0.10800841 -0.1586664 -0.0184039
000210 a6 68 ea bd 34 62 c3 3c 94 af 0f 3e 52 8e f8 be
       -0.11445741 0.023850538 0.14031821 -0.48546082
000220 e2 43 5a bf a0 3b d2 3e 13 ea 1b 3f 35 bf 3f be
       -0.8525983 0.41061115 0.60904044 -0.18725283
000230 14 93 e8 3d 62 23 77 bd 4f 70 6c bd 12 d8 87 3d
       0.11356178 -0.060336478 -0.057724293 0.06633009
000240 0e 8c 38 bd 6d f4 c5 3e 6d 4e d8 bc d6 da 43 bd
       -0.04505544 0.38663045 -0.026404584 -0.04781612
000250 1d dd 2b bc fe 43 f0 bc dd 6f b4 bd 6a c4 54 3c
       -0.010489729 -0.029329296 -0.08810399 0.012986282
000260 6f 8e bb 3d 7b 1f 08 3e 57 e7 e3 bd 8c 45 27 3e
       0.091580264 0.13293259 -0.11128109 0.16335124
000270 d2 ed 6c bd d5 3d 4a be 20 a7 fb bd 4c 1a 52 3e
       -0.05784399 -0.1975015 -0.12287736 0.20517844
000280 85 6b c1 bd 19 f8 3c 3e 40 a7 9b be 87 fc a6 3d
       -0.09444336 0.18454017 -0.3040104 0.081536345
000290 fa 9f 62 bc c1 7d 0b 3f 1e eb fe bd 4c dc f1 3d
       -0.013832087 0.5448876 -0.12447189 0.118095964
0002a0 b8 11 0e be 29 0a 21 be ae ca 2a bc c8 e4 6c 3d
       -0.13873947 -0.15726532 -0.010424299 0.05783537
0002b0 cf 55 cc bd 32 9c 9d 3d f5 04 d6 bd 2c c1 8a 3d
       -0.09977304 0.076958075 -0.10450164 0.06775126
0002c0 f2 c5 1c bf 3e 55 77 3f 07 8a 7c bd 8f 0a 01 3e
       -0.6123954 0.96614444 -0.06165507 0.12601684
0002d0 fb 50 0f 3e 04 4a 0e be 32 78 bf 3c ee 4e 02 bd
       0.13995735 -0.13895422 0.023372743 -0.031813554
0002e0 21 49 eb 3d 2d 33 12 be 86 e8 eb 3d df 85 a6 bd
       0.114885576 -0.14277335 0.1151896 -0.08131003
0002f0 1b 96 e5 bd ca 7d 8f 3e 72 99 c2 3d b6 29 84 3d
       -0.11210271 0.28025657 0.095019236 0.06453268
000300 5f 5a 56 ba 4b b0 1a be 04 66 89 3b dd ed 4a 3e
       -0.00081769185 -0.15106313 0.0041930694 0.198173
000310 c9 98 b0 bd d8 4c 84 3d 24 5d b3 3d eb 5e e2 3e
       -0.086228915 0.06459969 0.087579995 0.44213042
000320 84 13 3a be 0a fa 51 be 56 9a f7 3d 01 13 82 3e
       -0.18171507 -0.20505539 0.12089984 0.25405124
000330 f0 10 79 3e 84 ca 3c 3c 07 6b a6 be f8 ba 8e 3e
       0.24322867 0.011522893 -0.3250353 0.2787702
000340 34 4c 81 3d 60 4e c4 bb f5 06 d2 3d 95 fa 79 3d
       0.06313363 -0.0059907883 0.10255233 0.06102999
000350 ee 88 01 3c f0 35 10 be 33 4b ff 3d 7b 67 81 bd
       0.007906182 -0.14083076 0.12465515 -0.063185655
000360 f9 03 e4 bd 8b 95 c9 3d 06 c8 8d bc 2b 1d 1b be
       -0.1113357 0.09842976 -0.017307293 -0.15147845
000370 70 4a fe bd fb c2 4f bc f0 2d 0b 3e b2 81 10 be
       -0.124165416 -0.012680764 0.13591743 -0.14111975
000380 8d fb 0e bd 38 62 1c bf f7 14 89 3d 8a ff 1f 3e
       -0.034907866 -0.6108737 0.06693452 0.15624824
000390 54 97 36 3e 12 2a 17 3f 5b c2 33 bd 51 e9 68 bd
       0.17831165 0.5904857 -0.043886524 -0.056863133
0003a0 0c 99 d5 bd 32 b2 a1 3d d7 38 03 3e 78 b5 6d bd
       -0.10429582 0.07895316 0.12814651 -0.05803439
0003b0 ba da 53 be b2 43 bd be 3f 6c bb 3d 81 fc 98 3e
       -0.20688906 -0.3696571 0.09151506 0.29880145
0003c0 cf 61 07 3e 7e 3e 62 3c b6 24 9a 3d 72 c0 8d 3e
       0.13220905 0.013808845 0.07526533 0.27685887
0003d0 46 9f cc bd 8e ea 89 bd 58 b9 03 be 4c 7f ee 3e
       -0.099913165 -0.06734191 -0.12863672 0.46581495
0003e0 2c cc 95 be 20 07 43 be 3f 75 3a 3d c5 9e 60 bd
       -0.29257333 -0.19045687 0.04552197 -0.054838914
0003f0 c4 af e2 bd 85 71 81 3d c2 94 a4 3d f1 cc b5 be
       -0.11068681 0.0632048 0.08036186 -0.3550792

conv5.layers.0.bias f4 [16]
000000 af bf dd bd 6c 97 94 3e 45 0a 0e 3e 53 96 71 3e
       -0.10827576 0.29021776 0.13871105 0.235925
000010 40 a0 64 3d 48 7a 03 3e 0f 52 29 3d db 89 45 be
       0.05581689 0.12839615 0.041338023 -0.19290869
000020 71 7c 74 be b1 40 05 3d 4a f7 58 3e 4b cf c6 be
       -0.23875596 0.032532398 0.21188083 -0.38830027
000030 e7 a7 28 be f5 3f 12 3e ee 97 c5 bd fa 67 21 bd
       -0.164703 0.1428221 -0.09648119 -0.0394058

conv6.layers.0.weight f4 [32, 16, 5]
000000 92 21 8b 3c 0a e9 ca bd b5 da 41 3d b0 23 15 3d
       0.016983781 -0.0990773 0.047327716 0.036410987
000010 96 66 85 bd 99 d3 b4 3d 35 09 2f bf c6 31 3d be
       -0.06513707 0.088294216 -0.68373424 -0.18476018
000020 70 8d 4f bc d9 21 5e be 08 87 ca 3e c8 d5 ca bc
       -0.012667999 -0.216926 0.39556146 -0.024760142
000030 1b 7c 06 be 0c 4a 8b bc 7d 12 31 bd a1 dc e8 3c
       -0.1313328 -0.017003082 -0.043230522 0.028425517
000040 f1 8e 38 3e 61 44 b8 bd 02 12 02 3e 0d a8 8e bd
       0.18023278 -0.08997417 0.12702182 -0.06965647
000050 d4 fb 51 be 8e 0a f1 3d 2e f2 8e be 71 f1 b9 bd
       -0.20506221 0.11769591 -0.27919143 -0.090792544
000060 76 d5 3f be fd b2 bc 3e 61 16 56 3e 51 2f 38 bd
       -0.18733773 0.36855307 0.20906974 -0.044967
000070 49 ce 41 3e 60 2e 1c 3d ad ad 7e 3d 8e 12 27 bd
       0.18926348 0.038130164 0.06217735 -0.04078918
000080 63 4a 42 be 27 ff 40 bd 14 6f b6 3e de 2b 80 be
       -0.18973689 -0.047118332 0.3563162 -0.25033468
000090 9c c4 ec bd b1 b5 44 3e cc 91 3c 3e 98 f6 b6 3d
       -0.11560938 0.19209935 0.18414992 0.08933753
0000a0 16 9d 3c be 9b 4a ec bd e8 0c 8d bd 24 d3 4f 3d
       -0.18419299 -0.11537667 -0.06887227 0.05073847
0000b0 ac 20 11 3e b5 cd 83 3e ef 7c f1 3d 40 fc d5 3e
       0.1417262 0.2574288 0.11791407 0.41794014
0000c0 b5 f6 56 3c df 46 02 be 02 99 78 3e af 85 13 be
       0.013120343 -0.12722348 0.24277118 -0.14406465
0000d0 46 62 18 3e e6 78 19 3f 8f 0b 88 be ad 24 7d 3f
       0.14881238 0.599501 -0.26571319 0.9888409
0000e0 0a 12 16 bf 30 38 c0 be 4d c7 55 3f 0e e1 11 3e
       -0.58621275 -0.37542868 0.83507234 0.14246008
0000f0 5b 9a a0 bc a5 16 63 3f 92 34 82 3e f9 1f 0b 3f
       -0.019604852 0.8870643 0.25430733 0.5434566
000100 59 33 cb 3e 4a 3d 99 be 94 6b a0 3d f6 16 8a be
       0.39687613 -0.29929572 0.07833019 -0.26970643
000110 b4 d1 58 be 2b 01 8e bd 71 1b 21 3c 81 fd e6 ba
       -0.21173745 -0.069338165 0.009833203 -0.0017623157
000120 e4 f0 19 bd c4 06 d0 3e c6 f7 16 3c 25 3d 2d 3e
       -0.037583247 0.40630162 0.009214347 0.16917856
000130 8c 8f 84 be 10 8f 0a 3f 79 b0 dc be b5 72 d9 3e
       -0.25890768 0.54124546 -0.43103388 0.42470327
000140 90 72 85 3d 1e 68 3f 3d 24 bd 3e bd 7f 51 ab bd
       0.06515992 0.046730153 -0.046567097 -0.083651535
000150 0d 76 66 3d 3b f0 cb 3d df 95 19 3d 61 c8 6e 3d
       0.056264926 0.0995793 0.037496444 0.058296565
000160 6f a0 2b be e6 4f da bd 74 52 ef bb 36 92 39 bd
       -0.1676042 -0.10659771 -0.0073035304 -0.045305453
000170 75 26 0b be be 24 5e 3d b3 16 5f 3e b6 60 ff bd
       -0.13588889 0.05423426 0.21786003 -0.12469618
000180 11 35 ea 3b fa ff 70 3e c2 90 27 3e 52 ac 22 3f
       0.0071474393 0.23535147 0.16363814 0.6354419
000190 0b aa 16 be 6f d2 66 3c 8d ed 30 3e d2 f8 aa bd
       -0.14713304 0.014088257 0.17278118 -0.0834824
0001a0 8f 00 94 3d 0c 98 b1 3d b4 38 3f 3e 5c fc c6 3e
       0.07226669 0.08671579 0.18673974 0.3886441
0001b0 e8 88 8b 3d 16 5c 9c 3e cf 88 64 3d ac 29 ed bd
       0.06813222 0.30539006 0.055794533 -0.11580214
0001c0 ee 6e 7c 3e 81 6e 85 3e 8c 79 c8 3e 6f d1 a8 be
       0.24651691 0.2606087 0.39155233 -0.32972285
0001d0 99 c7 c2 be 76 2b 86 3e 9b bc 9e 3e 52 dc 11 3e
       -0.38042906 0.26205033 0.3100327 0.14244202
0001e0 05 01 f8 be 12 25 e1 3d d6 79 b3 bd 58 c4 c2 be
       -0.48438278 0.10993399 -0.08763473 -0.38040423
0001f0 1a 38 9e 3d f2 67 34 be db 1a 0e 3d 6c fa ae 3b
       0.07725544 -0.17617777 0.03469358 0.005339911
000200 f3 23 a2 3d d7 15 06 bd be 14 34 3e a8 d2 7d 3d
       0.07917013 -0.03273567 0.17586038 0.061968476
000210 33 5f ce 3d 9d 97 df 3e bc 00 a8 3e b8 0d 56 be
       0.100767516 0.4367036 0.3281306 -0.20903671
000220 08 0c c0 bd d8 de d1 3d b6 df 7d 3d e9 f8 b0 be
       -0.09377295 0.10247582 0.061980926 -0.34564903
000230 f0 87 4f 3d c9 f0 be bd 48 1e 62 3f 31 50 14 3e
       0.05066675 -0.0932327 0.88327456 0.14483716
000240 e6 11 e4 3d 54 04 8d be 97 d7 4b 3e bd 73 d3 bd
       0.11136226 -0.27542365 0.1990646 -0.1032481
000250 e0 d7 93 be 87 77 d6 3e 11 e0 d0 be f0 07 6a be
       -0.28875637 0.41888067 -0.4079595 -0.2285459
000260 2c 38 92 3d e1 3f 44 be 4f 25 05 3e bb 55 fa be
       0.0713962 -0.19164993 0.13002513 -0.48893532
000270 98 d5 aa 3d 29 56 1a 3d 1d 7a 01 3e 36 80 04 bd
       0.08341521 0.037679825 0.12644239 -0.032348834
000280 d2 97 a0 3d 40 b9 d5 bd c7 a5 89 bd 0c 5f d2 3d
       0.078414574 -0.10435724 -0.06721073 0.10272035
000290 c8 0a d5 bd 31 02 0c 3e 38 92 67 3e 1a e3 97 3d
       -0.10402447 0.13672711 0.22614372 0.07416363
0002a0 8b 49 c2 bd 39 5b ce bc 3e 27 bb be 61 6e f3 bd
       -0.094866835 -0.025189983 -0.36553377 -0.118862875
0002b0 2b a0 95 bd 43 07 a2 3e 07 a9 8d 3e ac 8c d5 bd
       -0.0730594 0.31646165 0.2766802 -0.10427222
0002c0 95 4c 57 be fe d4 5d 3d b2 53 87 bd 33 60 67 3e
       -0.21025307 0.054158203 -0.066077605 0.22595291
0002d0 ac 70 91 bd fa e5 cf 3d c7 18 b6 bd 88 30 41 3e
       -0.071015686 0.101512864 -0.08891445 0.1886617
0002e0 33 09 69 3e c3 70 09 3e 2d 5e 2c bd cc 15 0b 3e
       0.22757415 0.13421921 -0.042082 0.13582534
0002f0 70 13 48 3d bf 57 4f 3e 9c d6 9e 3d 4d f8 82 3d
       0.048846662 0.20248316 0.07755777 0.06395016
000300 03 90 a9 3c 58 66 99 3e 25 f5 29 3e 99 4b dd be
       0.020698553 0.29960895 0.16597421 -0.4322174
000310 ff ca 33 bf 71 16 52 be b3 3e d4 3e 6b 57 98 3e
       -0.7023162 -0.20516373 0.41454086 0.29754195
000320 d9 e2 03 bf 35 31 5f be 4a 39 26 be a9 3b e6 3e
       -0.5151802 -0.21796115 -0.16232792 0.44967392
000330 4a 0f b9 3e 98 24 a2 be 5b dc 44 be fc 81 03 bd
       0.36144477 -0.31668544 -0.19224684 -0.032106385
000340 51 a6 08 3e 50 92 f0 3e b4 f5 89 3e 43 d0 c7 bc
       0.13344695 0.46986628 0.2694527 -0.0243913
000350 80 4d 4c 3e 2e 90 fe 3e 54 ca ab 3e 6d fa 9c bc
       0.19951439 0.49719375 0.33552802 -0.019162381
000360 27 8a 4e be 89 27 ba 3c ae d3 41 3e 65 7a 71 3f
       -0.20169888 0.02272393 0.18928406 0.94327384
000370 34 5e 80 3d 9a 17 41 3e 9c 51 1e be 6b 2e 85 3f
       0.06267968 0.1885666 -0.15460819 1.0404791
000380 90 8a 02 3e 0b 77 87 be f0 0a 06 3e ef 12 7c be
       0.1274817 -0.2645801 0.1309011 -0.24616598
000390 e2 1b b3 3e 8d 60 9c 3e ab 64 d7 be e4 4d 46 bf
       0.3498221 0.30542412 -0.4206899 -0.774626
0003a0 03 1d 0c be 44 01 2f bd a2 34 af 3e 1d 54 7d be
       -0.13682942 -0.042725816 0.34219843 -0.24739118
0003b0 28 72 a4 be a5 83 db 3d 00 15 87 3e d6 1c 50 3e
       -0.32118344 0.107184686 0.2638321 0.203235
0003c0 74 34 04 bb fd 6d 12 bd d2 d2 8b bd 80 7a b3 3b
       -0.0020172866 -0.035749424 -0.0682732 0.0054772496
0003d0 82 58 47 bd 18 1a c2 3d b1 72 4a be a6 94 3c 3e
       -0.048668392 0.09477633 -0.19770314 0.1841608
0003e0 03 1c 34 3e b5 2d aa 3d 52 0b 12 be d3 22 35 3d
       0.1758881 0.08309499 -0.14262131 0.044222664
0003f0 23 ad dc 3e 06 7d ff be 26 5c 40 3e d0 db 38 bb
       0.43100843 -0.49900073 0.18785152 -0.002820719

conv6.layers.0.bias f4 [32]
000000 0a b8 49 bd b1 01 29 3e 1b 47 ee 3d f4 9b 71 3e
       -0.04924778 0.16504551 0.11634656 0.23594648
000010 bc f1 97 3e 2f 69 26 3d b1 01 85 3c 77 a2 83 bd
       0.29676616 0.040627655 0.016236158 -0.06427472
000020 94 6a 07 be b5 b0 6c 3e 07 a8 6e 3e b1 e0 6e 3e
       -0.1322425 0.23114283 0.23306285 0.233279
000030 26 54 02 3e e7 c4 5d bd aa ac f7 3d 5a f6 22 3e
       0.12727413 -0.05414286 0.1209348 0.15914288
000040 b7 02 5c 3c 6a af cb bd a3 37 59 3e 64 75 3e bd
       0.013428382 -0.09945567 0.2121263 -0.04649867
000050 f0 00 13 3e 54 af cc be 7d f5 38 bd b1 e3 02 3e
       0.14355826 -0.39977515 -0.04515599 0.1278217
000060 24 52 0c bd 1a 1d 6f 3e fa 85 74 3d 56 3b ae 3e
       -0.034258023 0.23350945 0.059698083 0.34029645
000070 72 38 36 3e 2a 59 34 3e fb 0f 83 3e 11 df c1 bc
       0.1779497 0.17612138 0.2559813 -0.023665937

fc7.layers.0.weight f4 [1, 16]
000000 72 ba 4a 3e 56 86 32 3e ea 4b 0b be 0c 55 b8 3d
       0.19797686 0.17434058 -0.13603178 0.090005964
000010 ff b4 46 3e 59 fb 02 be c7 ab 6a 3d 0f fe 63 bf
       0.19404982 -0.12791194 0.057292726 -0.8905954
000020 8b db 90 be 81 a6 d8 bd 24 23 31 be d2 2e 89 bc
       -0.28292498 -0.10578633 -0.17298561 -0.016745958
000030 83 0e 28 bf 7a 3a 1c 3f 87 07 86 3e eb 53 f3 bd
       -0.65647143 0.6102673 0.26177618 -0.118812405

fc8.layers.0.weight f4 [1, 32]
000000 28 5c 67 be b9 61 4c be 6c 8d af 3e 98 da f8 3d
       -0.22593749 -0.19959153 0.34287584 0.121510684
000010 0a 37 36 be 82 09 30 3e 65 e7 81 be 96 a7 ed be
       -0.17794433 0.17191127 -0.25371853 -0.4641692
000020 f9 0d 98 3b 9d a1 4f 3e a2 b5 4d 3e ec f2 86 be
       0.0046403375 0.20276494 0.20088819 -0.2635721
000030 c4 ff 54 3e 6e 0b 8d 3d 30 22 28 3e 6b 4b 01 be
       0.20800692 0.06886946 0.16419291 -0.12626426
000040 a4 e2 46 be 57 07 42 be 1c 66 1a 3e 06 13 13 be
       -0.19422394 -0.18948112 0.15078014 -0.14362726
000050 a7 20 28 be ab 0e b9 3e 2b 83 74 be 59 31 92 be
       -0.16418706 0.36144003 -0.23878162 -0.28553274
000060 b3 e1 4d be 8f 06 41 be 2a 8c b7 be 03 c5 45 be
       -0.20105629 -0.18850158 -0.35849124 -0.19313435
000070 19 9c 4e be 45 4f 3e be e4 33 14 be 0c fe 14 3e
       -0.20176734 -0.18584926 -0.1447292 0.14550036

exp_avg f4 [512, 16]
000000 b0 49 5e bc ec 8b 87 3b f2 8c 4e bc b2 bd 36 3b
       -0.013567373 0.004136553 -0.012606846 0.0027884063
000010 2f 99 99 3a 9e cd 92 bb a1 9a 5d 39 22 41 4d bb
       0.0011718626 -0.004480078 0.00021133806 -0.003131934
000020 8a fd 61 bc 5a b9 09 38 63 d0 3f bc 11 98 83 3a
       -0.013793359 3.2835967e-05 -0.011707398 0.0010039826
000030 64 04 96 3a c2 1d ad ba 8a c9 76 ba 12 34 16 bb
       0.00114454 -0.0013207721 -0.0009414187 -0.002291922
000040 8d e4 2c ba f0 d5 a1 bc 6e b1 9c 3a d9 e5 92 bb
       -0.0006595336 -0.019755334 0.0011954734 -0.0044829664
000050 57 25 32 ba 92 0f 4b 3a 2a 1b 26 bb f9 87 6d bc
       -0.0006795725 0.00077461556 -0.002534578 -0.01449775
000060 54 8b 14 ba 9e d6 93 bc c2 b2 48 bb cf c4 a3 bb
       -0.00056665135 -0.018046673 -0.0030624126 -0.0049978266
000070 d0 19 a1 bb 53 74 35 3a 9e a3 1e bb 8e 73 4a bc
       -0.004916407 0.0006921936 -0.002420641 -0.012356652
000080 7d de 91 bc 68 4f 86 bb 84 04 5a bd 97 60 03 bd
       -0.017806286 -0.0040988214 -0.053226963 -0.032074537
000090 29 57 f8 bc d0 d4 2f bd 7e 4d a7 3b 94 f8 74 bc
       -0.030314999 -0.042927563 0.0051056733 -0.014951844
0000a0 28 25 91 bc bd 5c 82 bc c0 b5 26 bd 8f 12 52 bd
       -0.017717913 -0.015913362 -0.040700674 -0.05128723
0000b0 46 75 02 bd 41 d8 27 bd 65 48 11 bc 6b a0 b7 bb
       -0.031850122 -0.04097772 -0.008867358 -0.00560384
0000c0 b3 b5 9c 3b ec 9f 86 3c f9 e0 1c 3c be df b8 3b
       0.0047824024 0.016433679 0.009575122 0.0056419065
0000d0 39 39 47 3c 70 bb 99 3b 33 66 f1 3b ae ad 7d 3c
       0.012159639 0.0046915337 0.0073669194 0.015483303
0000e0 dd 9a ff 3b 30 90 bf 3c e8 e7 02 3c e9 e8 52 3c
       0.0078004436 0.023384184 0.007989861 0.012872913
0000f0 a2 3a 58 3c f2 cc 8e b9 26 20 55 3c 0b c1 27 3c
       0.013197573 -0.00027237047 0.013008153 0.010238896
000100 bb af a2 3c bc 42 01 3d f2 1d 07 3d 74 27 31 3d
       0.019859185 0.031557783 0.032987542 0.043250516
000110 7c 2c d8 3b bb c9 c7 3c 21 04 d6 bb 95 00 50 3c
       0.0065971 0.024388185 -0.006531254 0.012695451
000120 48 a5 6c 3b f7 83 1e 3d e5 d7 0e 3d 1f c0 f1 3c
       0.0036109257 0.03870007 0.03487386 0.029510556
000130 83 d4 d8 3c 67 40 92 3c 81 1a 9d bb 32 88 dd 3c
       0.026468521 0.017852975 -0.0047944193 0.027042482
000140 4d e6 85 3c 8b ba 07 3d 19 be 63 3c c5 ce ea 3c
       0.016345168 0.033136886 0.013900303 0.028663049
000150 b2 91 1c 3c b1 e6 45 3c 37 a0 44 3c a9 99 87 3c
       0.009556221 0.012078927 0.012001089 0.016552763
000160 0c 6b ff 3b a9 c0 19 3d ff ce 90 3c 19 62 d4 3c
       0.0077947434 0.03753725 0.017676828 0.025925683
000170 ce 65 9e 3c 0a 5b 11 3c 20 e3 1a 3c bc cc a7 3c
       0.019335654 0.008871803 0.009453565 0.020483367
000180 0f dc a1 3b 3c ab 25 bc 83 66 91 bc 8a c4 70 bc
       0.004939563 -0.010111626 -0.017749077 -0.014695296
000190 87 01 19 bc 61 73 c3 bc 85 b9 5a 3c bc e6 9d bc
       -0.009338743 -0.023858728 0.013349895 -0.019275062
0001a0 f7 da 07 bc 4e 4c d5 bc 3e 27 46 bc 04 3d a5 bc
       -0.008291951 -0.026037361 -0.012094317 -0.020170696
0001b0 35 c3 56 bb b1 01 02 bc 66 b7 09 3a 41 20 62 bc
       -0.003277016 -0.007934974 0.0005253464 -0.013801635
0001c0 8a c4 a3 bd 68 f8 d7 bd 99 a5 3a bd d9 ec ac bd
       -0.07996471 -0.105454266 -0.045568082 -0.084436126
0001d0 4b 8b cd bc 27 ef c6 bc 22 a9 73 bd b2 8e 39 bd
       -0.025090834 -0.024283959 -0.05948747 -0.0453021
0001e0 e4 50 15 bd 6a db f8 bd 09 a0 81 bd 7d f4 1e bd
       -0.036454096 -0.12151225 -0.063293524 -0.03880738
0001f0 4d be 62 bd 1b 7f 8c bc 2c 9e e9 bc f4 80 cc bd
       -0.055357266 -0.017150452 -0.028517805 -0.09985533
000200 3c a7 b2 bb 86 07 20 bc 1a 15 45 bb c3 12 16 bd
       -0.005452065 -0.009767419 -0.0030072392 -0.036638986
000210 ab a4 f8 bb a1 3b 9e bc b3 60 24 bc 91 98 f7 3b
       -0.0075879893 -0.019315543 -0.0100328205 0.007556029
000220 e3 a1 ba 3b f1 64 92 bb 46 3f 7c bc c0 7a d5 bc
       0.005695568 -0.0044675996 -0.015395945 -0.026059508
000230 55 b6 a1 bc 35 27 a8 bc 5e 1c b1 3a 4d a5 8b 3a
       -0.019740263 -0.020526508 0.0013512482 0.0010654122
000240 31 99 0b ba c9 55 8f 3d e6 40 7c bb f5 b8 31 3d
       -0.00053252565 0.06998784 -0.003849083 0.04338928
000250 74 93 aa 3c 6f ef 11 3d cb be c5 3c 08 e2 7e 3d
       0.020822264 0.035628732 0.024138829 0.06222728
000260 b8 be a5 3c 1e f4 c9 3d 1c 74 2e 3c b6 92 7f 3d
       0.020232543 0.09861015 0.0106478 0.062395774
000270 8e 51 14 3d 09 16 7f 3c dd 93 3b 3d 09 1b 54 3d
       0.03621059 0.015569218 0.04579531 0.051783595
000280 61 97 2d 3c e0 26 13 3c d3 bc e7 bb f2 a0 86 3c
       0.010595174 0.0089814365 -0.00707207 0.016434167
000290 58 3b 4e bc f2 c1 14 bc d8 74 a6 3b 7d 6e 87 bc
       -0.012587391 -0.009079443 0.005079847 -0.016532177
0002a0 6c c4 7e 3b 97 d2 9a 3b 8a 45 41 3b 67 e6 76 3b
       0.00388744 0.0047248113 0.0029490911 0.0037673952
0002b0 47 c4 09 bc 7e 6b 10 bc 1b c9 f4 bb c9 bb 00 bc
       -0.008408613 -0.008814691 -0.0074702627 -0.0078572715
0002c0 c8 20 63 3d f7 c1 00 3d db e9 60 3d 87 12 4e 3d
       0.055451185 0.03143498 0.054910522 0.050310638
0002d0 3a 0e bd bb 38 e0 93 3c ce 56 ab bb 49 1d 58 ba
       -0.005769518 0.018051252 -0.005228854 -0.000824411
0002e0 d0 da 48 3d fb 23 be 3c 61 e6 78 3d 13 e8 4d 3d
       0.0490368 0.023210516 0.06076658 0.05027015
0002f0 d6 15 e8 bb 0d 7b e1 3c 95 1c 9a bc fc b9 f3 39
       -0.007082681 0.027524495 -0.018812457 0.0004648714
000300 f1 07 66 bb cc 78 ed 3a c4 7a a7 3c a7 42 24 3c
       -0.0035099948 0.0018117665 0.020444281 0.010025657
000310 28 6d 1a 3c 73 3d 20 3c 4e 0a 6e bc 43 4f cd 3a
       0.009425439 0.009780276 -0.014528824 0.0015663881
000320 90 13 99 bb 32 73 a5 3b 23 93 75 3c a2 45 82 3c
       -0.0046715215 0.0050491327 0.014988693 0.015902344
000330 c0 5c 3f 3c 73 a4 03 3c 2c c0 02 bc 0a b5 38 bb
       0.011679828 0.008034813 -0.007980388 -0.002818408
000340 d8 c1 d0 bc 73 82 42 bc 9b e7 c2 ba e5 91 b3 bc
       -0.025483057 -0.011871922 -0.0014870049 -0.021920154
000350 3b e6 19 3c 83 29 cb bb 7f 40 6f bc 4b 32 7c 3b
       0.00939327 -0.006200017 -0.014602779 0.0038482125
000360 1c 89 a4 bc 40 87 f5 bc 21 19 a9 3b 14 38 e4 bc
       -0.02008491 -0.029971719 0.0051604663 -0.027858771
000370 b4 1b 71 bb 3a a9 82 3b d7 f2 ec bc 16 b2 f5 3a
       -0.0036790194 0.0039874585 -0.028924389 0.001874509
000380 05 92 4a ba 2b 3d bf 3c ec b9 4b 3c 01 af 87 3b
       -0.0007727447 0.023344597 0.012434464 0.004140735
000390 5f e3 5f 3c b5 b4 fa 3b 47 0b f0 39 99 fe db 3c
       0.013665049 0.0076509365 0.0004578477 0.0268548
0003a0 cf 90 81 3b 8c 15 be 3c e5 b7 1d 3c ca 33 d4 3b
       0.00395403 0.023203634 0.009626363 0.0064759003
0003b0 0d f3 43 3c 1c bf 16 3c 18 07 ce 3b 28 68 d4 3c
       0.011959803 0.009200837 0.0062874667 0.025928572
0003c0 cd 04 a4 bc 74 ce e0 bc fe 34 28 bd 52 b0 d4 bc
       -0.02002182 -0.027442195 -0.041066162 -0.025962982
0003d0 4b 34 34 bc ef f4 82 bc 08 96 24 3c 11 13 8f bc
       -0.010998796 -0.015985934 0.010045536 -0.017465146
0003e0 19 d0 a4 bc ec ef 1c bd 88 6c 05 bd 89 00 ee bc
       -0.02011876 -0.038314745 -0.032574207 -0.02905299
0003f0 fb a0 4b bc 25 a7 2d bc e3 e9 e1 37 de b2 a2 bc
       -0.012428517 -0.010598932 2.6931002e-05 -0.019860681
